checkpoint.pth (torch_old, 21488 bytes, 6 tensors)

fc1.weight f4 [64, 11]
00000000: e87f 283b e332 233e 5715 80be c71c 66be
00000010: 7457 f4bd 3866 a73d f9ec d8ba 80cd 743e
00000020: 3032 dbbc d5b8 ac3d 7a9d babd 894a 79bd
00000030: 6c0a 94be 38a9 4cbe 0441 00be 4252 153c
00000040: 5ab6 f63d 1308 3a3e 0d50 51be b872 06be
00000050: 70fd e13d ae30 803e b75b 79bd 0804 693e
00000060: 1661 3cbd 5a42 0e3d edfd 8c3e dafd 8ebe
00000070: 352a 41be 0e54 9cbd 1ab3 f0bd deb0 853e
00000080: ba1f 48be 747f 0dbe a89a 54be d124 90be
00000090: 8198 32be 204d 853e 85a4 0d3e 5a85 183e
000000a0: 70e6 813c 314a 1ebe c839 5d3d 5523 90be
000000b0: 45b3 60be 8d47 20be a715 423e 5f13 383e
000000c0: aa8c 05be 5f5a 82bc 70e9 433e d677 993e
000000d0: a812 f53d a4d9 213d d402 4f3e 4df1 32be
000000e0: 9b10 663d 6aa1 70be 5f3c 56be b4f1 1fbe
000000f0: 41d2 0a3e 7d36 f23d 2ee3 36be b88c ba3d
00000100: f465 273e 90e0 1bbd 8bee 5d3c ea5e 903d
00000110: 39d2 3d3e 26c7 933e 9dc4 6ebe 555d dbbd
00000120: d6ae f23d 08d0 7f3e 5456 863e 3645 883e
00000130: f8c7 753d 7f96 85be ce73 f63c 4dd6 3ebe
00000140: 22b8 8ebe a240 8a3e b930 6c3e 0a10 9bbe
00000150: e027 673d e80b 50bd 798f 54bd d354 0dbe
00000160: 2c76 ed3d 4fdf 36be 505e e23d dc22 1c3e
00000170: 0c06 5d3e 6ce3 e63d 09ca 98be 9c48 48be
00000180: 8e29 1a3e 1c3e 813d 5ed9 70be 79a8 33be
00000190: 6b96 903e 7cca 4b3e a3a0 08be 5505 9dbd
000001a0: 252c 93be 3742 07bc 5181 68be 9027 6ebe
000001b0: 909d 9cbc 806d 393d dcde 02be 1e7b 373e
000001c0: b963 3cbe eaee 8b3e 2b42 523e 6d37 80be
000001d0: 7aea 9bbd 60e7 5e3c b82f 343d 3cf9 903d
000001e0: 9452 f23d 7100 c43c 1686 16be e54d 113e
000001f0: 8ed6 94be dce0 38be 6bf1 95bd 37be 12be
00000200: 3c05 d8bd 660e 7dbe d5a5 7abd 5cfe 833d
00000210: 22a8 4dbe 8a02 87bc 6da3 5c3e 9528 febc
00000220: 70fd 023c 331a e1bc f3c0 6c3d 5e50 443e
00000230: e23a 923e 3f4c 413e 8890 923e 5c2e a6bc
00000240: 9447 89be 93e4 0fbe 5ff1 533e d89c 38bb
00000250: 0dec 18be 1dab 6fbe 9678 90be f24a 82be
00000260: c431 84bd ae51 293e 8cdf 203e b006 95be
00000270: d7fb 403e bacb 70be 3664 80bd fc05 fdbd
00000280: 72ec 6dbd 3c7b 72bd ff86 8abe 512c 85be
00000290: 2840 41bd a596 113c cf9a 0cbe a8ca e63d
000002a0: de80 8bbe bb1f b1bc 8371 873e 125e f6bd
000002b0: 6866 8b3e d4a0 df3d c44f 8abe 0458 433e
000002c0: a1b4 16bd ea49 0abe 4e01 773e 6c80 79be
000002d0: a44d 043d 33d0 82bd 4feb 5a3e d45e ac3d
000002e0: da5a 143e f3eb d63d f27d 94bd d4dc 81bd
000002f0: e56e 7ebe 084b 273e 8c23 753e b840 533e
00000300: acc8 59be 6052 5c3c 90a5 59be eff5 29be
00000310: b0e8 33be a406 d33d 381b 3dbe a893 e5bb
00000320: 24af 4c3c 75c4 473e 6ba2 68be 3e83 57be
00000330: 9473 36be 501a 583e caf7 ddbd 9099 803e
00000340: 7c4a df3d 72de 203d dfb1 e3bb 8d32 80bd
00000350: f6bf 073d b242 98bd 23f3 84bb c42f 133d
00000360: 0481 71be 07d3 21be cee9 763e 2890 7abe
00000370: 35ab b4bc d9e9 983e 7a9f e13d 91b3 203c
00000380: b59f 85be 3ac8 193e fca1 5abe ea48 afbd
00000390: 042e cfbd 48b0 33bd 8023 583b 1e61 813e
000003a0: 1e4a 1b3d f430 8b3e 5329 3d3e 83c9 42be
000003b0: f992 093e dfad 58be e2da 02be 909e b53d
000003c0: 6fbd ce3d 90a1 673e 2ad8 c1bd 89e7 8339
000003d0: 49e2 1d3e da0d 96be cfca 5d3e 36be 7cbe
000003e0: 4c73 3c3b 18f8 51bd e99b 22be 55db 1d3d
000003f0: 284f 7f3e 5cd3 bbbd e7b9 35be bde2 e0bd
0.0025711004 0.1593738 -0.2501628 -0.22471915 -0.11930743 0.081737936 -0.0016550116 0.23906517
-0.02675733 0.084336914 -0.091120675 -0.060862098 -0.289142 -0.19986427 -0.12524801 0.00911385
0.120464996 0.18167143 -0.20440693 -0.13129699 0.110346675 0.2503714 -0.06087848 0.22755444
-0.045991026 0.034731247 0.2753748 -0.27928048 -0.18863757 -0.0763322 -0.11752911 0.261115
-0.19543353 -0.13818151 -0.20762122 -0.2815309 -0.17440988 0.26035404 0.1383229 0.1489462
0.015856951 -0.1545799 0.054010183 -0.28151956 -0.21943386 -0.15652294 0.18953572 0.1797614
-0.1304194 -0.015912233 0.19132018 0.2997424 0.11966449 0.0395142 0.20215923 -0.17474861
0.05616818 -0.23499075 -0.20921467 -0.15619546 0.13556768 0.11826799 -0.178601 0.09108871
0.16347486 -0.038055956 0.013545643 0.070493534 0.18537225 0.28862876 -0.2331719 -0.10711161
0.118497536 0.24981701 0.26237738 0.26615304 0.06000516 -0.26091382 0.030084517 -0.18636437
-0.27874857 0.27002436 0.23065461 -0.30285674 0.056434512 -0.050792605 -0.05189464 -0.13801889
0.11594805 -0.17858623 0.11053145 0.15247673 0.21584338 0.11273846 -0.2984164 -0.19558948
0.15054914 0.063106745 -0.23520419 -0.17544736 0.2823976 0.1990146 -0.13342528 -0.07667033
-0.28744617 -0.008255533 -0.2270558 -0.2325728 -0.0191181 0.045270443 -0.12780327 0.17918059
-0.18397416 0.27330714 0.20533054 -0.25042287 -0.07613082 0.013604969 0.04399082 0.07078788
0.11832157 0.023925992 -0.14699587 0.1418987 -0.29069942 -0.18054527 -0.073214374 -0.14330374
-0.105478734 -0.24712524 -0.061193306 0.064449996 -0.20083669 -0.016480703 0.21546717 -0.03102521
0.0079949945 -0.027478313 0.0578012 0.19171283 0.2856055 0.18876742 0.28625894 -0.020285778
-0.26812422 -0.14052038 0.20697545 -0.0028169658 -0.14933796 -0.23405118 -0.28217 -0.25447804
-0.064548045 0.16535065 0.15710276 -0.29106665 0.1884607 -0.23515216 -0.06269114 -0.12354657
-0.05808682 -0.059199557 -0.2705612 -0.26010373 -0.047180325 0.008886014 -0.1373093 0.11269122
-0.27246755 -0.021621576 0.2645379 -0.12029661 0.27226567 0.109193474 -0.2701398 0.19076544
-0.036793355 -0.13504758 0.24121591 -0.24365395 0.032300606 -0.06387367 0.21378826 0.084165245
0.14487782 0.104942225 -0.07250585 -0.06340948 -0.2484699 0.16337216 0.23939341 0.20630157
-0.21267956 0.013447374 -0.21254563 -0.16597722 -0.17569232 0.10304001 -0.18467414 -0.0070061274
0.012492929 0.19508536 -0.22718208 -0.21046159 -0.17817527 0.21103787 -0.10838278 0.2511716
0.10902879 0.03927464 -0.006948694 -0.06259642 0.033142053 -0.07434596 -0.0040573045 0.035934225
-0.23584372 -0.15803157 0.24112627 -0.24469054 -0.022054294 0.29865912 0.11016746 0.009808437
-0.2609841 0.15017787 -0.21350855 -0.08558829 -0.10116199 -0.043869287 0.0032980144 0.25269407
0.03791248 0.27185786 0.18472795 -0.19022183 0.13434972 -0.21160077 -0.1277881 0.08868134
0.10094725 0.22620225 -0.09465058 0.00025158774 0.15418352 -0.29307443 0.21659397 -0.24681935
0.0028755246 -0.05126199 -0.15879788 0.03853925 0.2493254 -0.09171173 -0.17746697 -0.10980747

fc1.bias f4 [64]
00000000: 7f11 3fbe 3e22 02bd 8559 213d af0d 853e
00000010: 8c8e 14be 06b3 433e c16c 1cbd 0ff7 14be
00000020: bd6d 86be 60ec 8ebe 9e64 963e f0f9 93bd
00000030: d75b 4a3c 8977 a03d 991a 523e 41c2 843e
00000040: d1d2 783e f3be 64be 9cc4 52bd 8318 39be
00000050: a39a 2fbe 7b52 953d 253b 903e 8d40 7abe
00000060: 469d 393e b22a 21be 5c8b 70bd 1ce1 743e
00000070: 76d7 8ebd 86d0 d73c b5f4 57be 3688 833e
00000080: a0a5 1fbd 457a 5dbe bcd7 b43d 6186 5bbe
00000090: 56fe 74be 9130 a43c 089d 713e b0ac b1bd
000000a0: bb83 103e 6356 843e 2c0e 4b3e 957a 20be
000000b0: ff9c 0cbd 593c c4bd f1fb 7abe 1056 a3ba
000000c0: 87ca 6a3e bf79 823e 679f de3c 0fc5 8b3d
000000d0: 04ec 01be ee0c 693e 08af 01be ef78 56be
000000e0: 3912 463d f452 3b3e aa7c 8bbe bd2c 8a3e
000000f0: a3e8 db3d 749c 59be 171d 91bd aba5 833e
-0.18659018 -0.031770937 0.039392013 0.25987002 -0.14507502 0.19111261 -0.038189653 -0.1454737
-0.262556 -0.27914715 0.2937364 -0.07225406 0.012350998 0.078352995 0.20517959 0.25929454
0.2429917 -0.22338466 -0.051457033 -0.18075757 -0.17148833 0.072911225 0.28170124 -0.24438687
0.18126401 -0.15738943 -0.058726653 0.23913997 -0.0697469 0.026344549 -0.21089442 0.25689858
-0.03897631 -0.21628673 0.088302106 -0.2143798 -0.23925146 0.02004269 0.23595059 -0.08675516
0.14112751 0.25847158 0.19829625 -0.15671761 -0.03432941 -0.09581823 -0.2451017 -0.0012461562
0.2292882 0.2548351 0.027175618 0.06824695 -0.12687689 0.22758839 -0.12664425 -0.2094457
0.048357222 0.18293363 -0.2724355 0.26987258 0.10737731 -0.21251088 -0.070856266 0.25712332

fc2.weight f4 [64, 64]
00000000: 7e69 c4bd 5ca5 15bd 9d5e 263d 2e62 dfbd
00000010: 6c5b 873d 12b7 883d 4fb3 9d3d 4a36 a3bd
00000020: ecf9 fe3d e00a 9abd d8f9 fe3d 46ae f5bd
00000030: d9a9 e5bd f83b 9d3d e00a 563c a04b ec3b
00000040: 1c35 8fbd 7cc5 56bd e21e 14bd 1f6b f6bd
00000050: fabd c83b feab ae3c 7f59 51ba 2057 253d
00000060: 5f73 f13d 6c7d 133d d86d 3bbd 902e 52bd
00000070: 4cca a3bd c8a3 b1bd 41b4 b4bc cc96 b9bc
00000080: 04c5 633d 6c9b 60bd 454a ca3d 50a1 b3bd
00000090: 0044 ba39 c545 e43d d091 fe3d 2ea0 9dbd
000000a0: 7067 b63c 5aac 673c 759d 73bd b4e4 30bd
000000b0: d285 043d 38f4 b4bd 0d3e cf3c b9ee 5d3d
000000c0: 8f81 54bd bc9d d53d a0c7 06bc ff5c 643d
000000d0: b884 fd3d d519 1cbd 71f0 8a3d 6c72 12bd
000000e0: 87bf a7bc 3a4e b4bc 3602 2d3b a53f 3fbd
000000f0: cee1 eb3c 29a6 4f3b b7c2 993d 685b aabc
00000100: f192 4c3c 2b14 3bbd ef04 ddbd 7332 523d
00000110: 343f 553c 6fd5 4ebd b578 3abd 20e6 053d
00000120: 1028 b9bc 37fe a13d cfa6 8a3b 55a2 423d
00000130: 1a3e 543d 9c5e 04bd bb69 5a3d 1648 be3d
00000140: 8f15 8f3b b863 c83c d0dd 4e3b e00b b03d
00000150: 8ca0 5abd 84ab 90bd e56d 573d 0260 ddbd
00000160: f626 e339 8796 77bd f6f7 a83d 8e26 f2bd
00000170: 63ea 9d3d 1de7 f93d 2e0f c53c a90b 43bc
00000180: 5afe fb3d eccd 5abd 8912 4cbc 1435 60bd
00000190: b05a 8dbc 6aab df3c b4fb 483c 27a4 bfbc
000001a0: 1783 01be 3274 013b 24df 9fbb 180c 9a3c
000001b0: f8c5 ba3d e561 f63d 5ce1 97bd 5c1a 37bc
000001c0: 26bd 59bd ef9c eabd dfd0 bcbd 83d8 ec3d
000001d0: f4d0 943d 2823 863d f46f 873d fa62 cbbd
000001e0: 9e60 2c3c e3e7 ef3d b949 95bd 5892 db3d
000001f0: a5a2 ff3c 6e75 ad3d 1e6e 62bd dba3 673d
00000200: fd6f e1bd fccc 07bc 798b 1a3d 26bd 163d
00000210: 5b6d d13d 0954 fa3d 61b0 e13d 51cf b13d
00000220: e0fb b33d a80d a5bc d9a9 cebd 5c87 3cbd
00000230: 9a28 8cbc 4d47 8bbd ba59 833d 7597 353d
00000240: 75d5 9c3c b05b f73c 9650 db3d 95d8 373d
00000250: 6981 e3bd ca9c bfbd d017 5c3d ca66 8d3c
00000260: 8536 733d 1cac ffbd 2a41 ecbd 82cc 9a3d
00000270: 73e0 a33d 4b50 e9bd 84bd 373d 687c cfbd
00000280: ecde c13d 24a9 203d 5f7b f63d f869 fcbd
00000290: f271 f6bd 08d7 ae3d a242 de3d 96a1 973d
000002a0: fa4b a93d 215c dcbd 5e9f b63d bcfb f1bd
000002b0: 9a73 ce3c a4d1 a9bd 345d 4bbd 862f 993c
000002c0: b171 51bd 624c a7bc efcb f3bd b335 f4bd
000002d0: fe70 453d 68e2 5abd 0161 a0bd b006 4abd
000002e0: e341 d5bd 8900 cfbd ee2e 993d 847e 783d
000002f0: c068 7d3c 2c3f 91bd 74ed 293d 9727 c73b
00000300: 6c04 b5bd 8335 db3c f60d e93d a7f4 fabd
00000310: 9937 01be 8742 8d3c ee12 c03d bcb8 95bd
00000320: a06b e13c 959a b13d 4b44 1d3d 16f8 e03c
00000330: 4180 fe3d b0d0 a43d 3070 8fbd 3bd6 393c
00000340: 59c2 813d d2c4 e13d 9a41 ffbd 66b2 8c3d
00000350: 9728 16bd 0112 fbbd fad9 df3c d3eb 8abd
00000360: ff3a 8c3c 547b a0bd bea5 c0bd 0fee 2cbc
00000370: 908b 2abd b98a 953d e326 1a3c a19c c73d
00000380: 90e6 bf3c 27c4 2abd db31 ac3d 80d3 df3b
00000390: 4032 c03c 5545 1ebd 250c 683a 336f cebc
000003a0: e5a3 38bc f7b7 c7bd cca0 c8ba b4ca d5bd
000003b0: 0eb2 e8bc 734d 923d 43ba a7bd 5802 acbd
000003c0: b55d 08bd 0739 0abd d06a a63c 8e1f a53c
000003d0: 9362 813d 9782 b0bd 7994 08bc b62d 8f3d
000003e0: 2327 dc3d 268f 16bc f30f 8dbd 2081 153d
000003f0: ad16 913d 2765 a1bd b4c2 9dbd ec5e 673d
-0.095904335 -0.036534652 0.040617574 -0.10907398 0.06609234 0.06675543 0.07700216 -0.07969339
0.124500126 -0.075216055 0.12449998 -0.11996131 -0.112140365 0.07677454 0.013064116 0.0072111636
-0.06992552 -0.05243443 -0.036162265 -0.120321505 0.0061261626 0.021322247 -0.0007986053 0.040366292
0.117895834 0.036008283 -0.045759052 -0.051313937 -0.079975694 -0.08673817 -0.022058608 -0.022654913
0.05560781 -0.05483572 0.09877447 -0.08771002 0.00035527349 0.1114612 0.12430155 -0.076965675
0.02226612 0.014140213 -0.059476335 -0.04318686 0.032354183 -0.088356435 0.025298143 0.05418274
-0.05188137 0.10430476 -0.008226305 0.05575275 0.1237883 -0.038110573 0.06784142 -0.035753652
-0.02047707 -0.022009958 0.0026399023 -0.046691556 0.028794196 0.0031684733 0.07507842 -0.020795539
0.012486205 -0.04567353 -0.10791957 0.051317643 0.013015557 -0.050496515 -0.04552527 0.032690167
-0.022602111 0.07909816 0.004231311 0.047518093 0.051817037 -0.03231679 0.05332349 0.09291093
0.0043665837 0.024461612 0.0031565316 0.08596015 -0.053375766 -0.07063964 0.052595038 -0.10809328
0.00043325842 -0.06044629 0.0825042 -0.1182376 0.07710721 0.122022845 0.02405509 -0.0119046355
0.12304373 -0.05341904 -0.012455591 -0.05473812 -0.017255157 0.027303416 0.012267042 -0.023393704
-0.12647663 0.0019753096 -0.0048788954 0.018804595 0.09119791 0.12030391 -0.07416031 -0.011175718
-0.0531589 -0.11455714 -0.092195265 0.11564734 0.07266417 0.06549674 0.0661315 -0.09930988
0.010521082 0.11714151 -0.07289452 0.10721272 0.031205485 0.084696636 -0.055280797 0.05655275
-0.11007688 -0.008288618 0.037730668 0.03680148 0.10225936 0.1222306 0.1101997 0.086821206
0.08788276 -0.020148113 -0.100909896 -0.046027526 -0.017109204 -0.06800709 0.06413598 0.044333894
0.019144753 0.030195087 0.1070873 0.044884283 -0.111086674 -0.09356077 0.053733647 0.017260928
0.059378166 -0.12483999 -0.115358666 0.07558538 0.08001795 -0.11392268 0.04485847 -0.101311505
0.09466347 0.039223805 0.1203525 -0.123248994 -0.12033452 0.08537108 0.10852553 0.07403867
0.082664445 -0.1075976 0.08917116 -0.11815593 0.025201607 -0.08291939 -0.049649432 0.018699419
-0.051133815 -0.020422164 -0.119041316 -0.11924305 0.04820346 -0.053438574 -0.07831002 -0.049322784
-0.104129575 -0.10107524 0.07479654 0.06066753 0.015466869 -0.07092127 0.04148622 0.0060777175
-0.08838734 0.026758915 0.11379616 -0.12253695 -0.12618865 0.017243637 0.093786106 -0.07310626
0.02751714 0.08672062 0.038395207 0.027462047 0.12426806 0.080476165 -0.0700382 0.01134258
0.06335897 0.110238686 -0.124636844 0.06869964 -0.036659803 -0.12259293 0.027325619 -0.06783261
0.017117975 -0.07836023 -0.09406613 -0.0105548045 -0.041637003 0.0730185 0.009408685 0.097466715
0.02342537 -0.04169097 0.08407947 0.0068306327 0.023461461 -0.03864034 0.00088519073 -0.025199508
-0.011269544 -0.097518854 -0.001530671 -0.10439053 -0.028405216 0.071436785 -0.081898235 -0.083988845
-0.03329249 -0.03374579 0.020314604 0.020156648 0.0631763 -0.08618658 -0.00833618 0.069911405
0.10749652 -0.009189403 -0.06887808 0.036500096 0.07084403 -0.078806214 -0.07703152 0.05648701

fc2.bias f4 [64]
00000000: 7841 dfbd 7430 c0bd 4b0f ccbd f585 4d3d
00000010: 3a34 bc3d 886a 173d 5de9 3d3d 32dc a33d
00000020: 9247 ad3d 0a2f 993d bc53 953d 5183 023d
00000030: 4423 843d 75ba b3bd 7eb2 a5bd 48a1 073d
00000040: 7200 9d3c 6780 e2bd de7e babd 8812 d2bd
00000050: 7fed c63d 3f87 a73d e74c 8dbd e326 9a3c
00000060: 7a5c f6bc a9ad d43d c0b9 e4bd 15f4 b8bd
00000070: fe22 d5bd 4ff1 943d 2d70 7cbd 349c 953d
00000080: 561c 253d fcb1 7dbd 5091 0bbd 89bb 52bd
00000090: 98e1 613d ffa0 46bd b310 2c3d 79f0 0e3c
000000a0: 7871 ccbd 975e a2bd f280 b1bd 8624 863d
000000b0: b0e1 dd3c c897 98bb 25d6 96bd 8ea5 fdbd
000000c0: 620a 3abd 7ced c3bd 4bae fdbd 0ec5 f4bd
000000d0: 1873 adbd 36de f8bd d7c7 283d 8240 403d
000000e0: eed9 513d b18a febd 32e7 9d3d 6e1a c83c
000000f0: 6329 813d e8ac fbbc e4ea 753d 54cb f2bd
-0.10901159 -0.09384242 -0.099638544 0.05017658 0.09189649 0.03696683 0.04636513 0.08000983
0.084609166 0.07479675 0.07291362 0.031863514 0.06452039 -0.08775798 -0.08090685 0.033112794
0.019165251 -0.11059647 -0.09106229 -0.10257441 0.097132675 0.08180093 -0.068994336 0.01881737
-0.030073393 0.103846855 -0.111682415 -0.0903093 -0.10407065 0.072725885 -0.061630417 0.07305184
0.040310226 -0.061937317 -0.034074128 -0.05144838 0.055146784 -0.04849338 0.042008113 0.008724325
-0.0998258 -0.07928198 -0.086671725 0.06549935 0.027085155 -0.0046567656 -0.073650636 -0.12385093
-0.045420058 -0.09566781 -0.12386759 -0.11951648 -0.08469218 -0.121517584 0.041206207 0.04693652
0.051233225 -0.12428797 0.07710113 0.024426665 0.06306722 -0.030722097 0.060038462 -0.11855188

fc3.weight f4 [3, 64]
00000000: 1464 2e3d acff ca3d 243a 573d 144f f1bd
00000010: fcba 0fbd 3054 7ebc d621 863d ecbd 41bd
00000020: 5047 933c f0bc 33bd c8ab a2bc 8012 23bb
00000030: daff 92bd 1cb0 b1bd 6656 d33d 4c17 d73d
00000040: c002 78bb ee95 dd3d 1a45 c53d ea3f a1bd
00000050: a472 4bbd 34d5 afbd d888 253d 402d 4f3b
00000060: a86d 8cbc 5012 be3d 2c20 48bd 421b 8cbd
00000070: fafb b5bd 123c 82bd 7abd f63d f8ed 78bd
00000080: e4e0 0cbd 08c4 663d ce9d c4bd a461 9bbd
00000090: 0a6b bc3d c05f 44bd 1cd7 84bd c07b 84bc
000000a0: 78e9 91bc c023 bb3c c8b5 3b3d 4863 c5bd
000000b0: 9ca4 e83d 9064 f3bd 1868 2d3d cc76 10bd
000000c0: 2037 58bd b877 ef3d fab1 f6bd c0de 0b3c
000000d0: 760a a43d ccdc e43d 226d d8bd 40c0 763c
000000e0: 0048 fd3d 6ac2 fabd 301d fa3c f466 a0bd
000000f0: 983b a63c d892 e7bd e0e7 7b3d d029 e3bc
00000100: 20ff 983d 0060 f6ba e8f5 91bc 289c f8bc
00000110: 7667 eabd 447a 59bd a007 883b b20d c6bd
00000120: 76aa e03d 607e a6bd 9c78 47bd 38f0 88bc
00000130: 4460 cfbd 8072 81ba d48c 76bd 3048 d6bd
00000140: 00f0 483b 42a2 e23d c828 fc3c 6825 d33d
00000150: 0039 a0ba 40b5 32bd 4453 ce3d 1853 88bd
00000160: b0d3 ecbd 901d e03c f82a 7f3d 1c07 99bd
00000170: ac34 343d 24a6 35bd a07d 78bc 68bb e2bc
00000180: b006 dbbc 3c4c d0bd 30f7 fa3c acad 06bd
00000190: 28bf c33d d0ea aa3c ba5c d1bd cac0 c2bd
000001a0: fa6a 85bd 642f 753d 0849 a5bd e439 6abd
000001b0: 20e8 b93c f87b b1bd 2c1f 7cbd 1223 e83d
000001c0: 7858 87bd 7c95 2abd 6217 b73d 5076 e53c
000001d0: 2eef c83d 8e88 e1bd c0eb 7f3d 00a1 9cbc
000001e0: 6601 a4bd ac49 5bbd 489f f7bd 2e18 b13d
000001f0: 807c c4bc f604 fbbd 7aef da3d 04d0 a53d
00000200: 0392 513d 364d f83d 8bf1 e43d 9449 ee3d
00000210: 811a e53d a00b d03d 99ad 083d ef71 26bc
00000220: d45b 8d3b 9a1a 54bd 12cb 763d f071 683b
00000230: 9896 f13c bea2 9dbd 58c8 40bd 8ce0 bf3d
00000240: dd72 313c 2b97 2d3d 6a7d dfbd 478a 53bd
00000250: 1513 65ba 9526 5bbc a35f 9e3d 4699 13bd
00000260: ecb5 d53d 5ce7 9abc 102f 4e3d bc6d b0bd
00000270: 98ce ad3c 3b07 f9bd ffcc d8bd de52 a1bd
00000280: 7a38 f83c 3c2f 1b3c c4af 413c ffa0 56bc
00000290: 9a1a d73d 0cde fb3d ca46 593d a2b4 cd3d
000002a0: c06e cabb 88f8 3bbd 3813 c73c 4454 a83d
000002b0: c842 9ebc 2b80 c0bd a0e6 303d 5084 02bd
000002c0: 9551 75bd 02b2 a13d be3f aebb 3c49 93bd
000002d0: 1dc8 93bd 3417 f13d fdae a93d 26f5 b6bd
000002e0: 97af 673b 3c66 50bb eac4 723d f1c6 dcbd
000002f0: 7516 ae3a e897 2a3d 2b79 803d 2025 563c
0.04257591 0.09912047 0.05254568 -0.11782661 -0.03509043 -0.015523002 0.065494224 -0.047300264
0.01797834 -0.043881357 -0.019857302 -0.0024882853 -0.07177706 -0.08676168 0.103192136 0.105024904
-0.0037843436 0.108196124 0.09632321 -0.07873519 -0.049669877 -0.08585587 0.040413707 0.0031612664
-0.017142132 0.092808366 -0.048858806 -0.068411365 -0.08885951 -0.06359114 0.120478585 -0.06077382
-0.03439416 0.056339294 -0.09600411 -0.07586983 0.092001036 -0.047942877 -0.06486341 -0.01617229
-0.017811522 0.022844195 0.045827657 -0.09638077 0.11359522 -0.11884415 0.0423356 -0.035269544
-0.052786946 0.116927564 -0.12045665 0.008536994 0.08009808 0.11174926 -0.105676904 0.015060484
0.123672485 -0.12244113 0.030531496 -0.07832137 0.020292088 -0.11307305 0.06150043 -0.027729899
0.07470536 -0.0018796921 -0.017817453 -0.030347899 -0.11445515 -0.053095117 0.0041512996 -0.09670581
0.10970013 -0.08129573 -0.048699006 -0.016716108 -0.10125783 -0.0009876043 -0.060192898 -0.104629874
0.003066063 0.110661045 0.030781165 0.10309869 -0.0012224019 -0.043629885 0.100744754 -0.06656474
-0.11563814 0.027357846 0.062296838 -0.07472059 0.043995544 -0.044347897 -0.01516667 -0.027677253
-0.026736587 -0.101707906 0.030635446 -0.03288047 0.095579445 0.02086392 -0.10222764 -0.09509428
-0.06514545 0.05985965 -0.0807057 -0.057184115 0.022693694 -0.08666223 -0.061553165 0.11334814
-0.06608671 -0.041646466 0.08940007 0.028010517 0.09811245 -0.11012374 0.062480688 -0.01911974
-0.08008079 -0.053537056 -0.12090927 0.0864719 -0.023985147 -0.122568056 0.10690208 0.080963165
0.05116464 0.12124102 0.11178883 0.11635128 0.11186696 0.10158467 0.03336868 -0.010159
0.0043139253 -0.05178318 0.060252257 0.0035468303 0.029490754 -0.07697056 -0.047066063 0.09369001
0.010830608 0.042380493 -0.10912593 -0.051645543 -0.00087385 -0.013375898 0.07733085 -0.036034845
0.104350895 -0.018909149 0.05033785 -0.0861468 0.021216676 -0.12159582 -0.10585975 -0.07877134
0.030300368 0.009471711 0.011821691 -0.013099908 0.10503121 0.122982115 0.053046025 0.100442186
-0.006177753 -0.045891315 0.024301156 0.082191974 -0.019318953 -0.09399446 0.04318869 -0.031864464
-0.059892256 0.078952804 -0.0053176573 -0.07191703 -0.07215903 0.11772004 0.082853295 -0.08933477
0.0035352462 -0.0031799218 0.059269823 -0.107801326 0.0013281839 0.041648775 0.06273111 0.013070375

fc3.bias f4 [3]
00000000: 90c8 7dbd 84c3 f5bd b401 8a3d
-0.06195885 -0.12000182 0.06738606
